…
evaluation = dict(interval=8000, metric='mIoU')
work_dir = 'addition_works/pascal_context/right/ecfd_tiny_convnext_large_480x480_80k_pascal_context'
gpu_ids = range(0, 1)

2023-08-30 14:43:13,777 - mmseg - WARNING - The model and loaded state dict do not match exactly

unexpected key in source state_dict: norm.weight, norm.bias, head.weight, head.bias

missing keys in source state_dict: norm0.weight, norm0.bias, norm1.weight, norm1.bias, norm2.weight, norm2.bias, norm3.weight, norm3.bias

2023-08-30 14:43:13,787 - mmseg - INFO - EncoderDecoder(
  (backbone): ConvNeXt(
    (downsample_layers): ModuleList(
      (0): Sequential(
        (0): Conv2d(3, 192, kernel_size=(4, 4), stride=(4, 4))
        (1): LayerNorm()
      )
      (1): Sequential(
        (0): LayerNorm()
        (1): Conv2d(192, 384, kernel_size=(2, 2), stride=(2, 2))
      )
      (2): Sequential(
        (0): LayerNorm()
        (1): Conv2d(384, 768, kernel_size=(2, 2), stride=(2, 2))
      )
      (3): Sequential(
        (0): LayerNorm()
        (1): Conv2d(768, 1536, kernel_size=(2, 2), stride=(2, 2))
      )
    )
    (stages): ModuleList(
      (0): Sequential(
        (0): Block(
          (dwconv): Conv2d(192, 192, kernel_size=(7, 7), stride=(1, 1), padding=(3, 3), groups=192)
          (norm): LayerNorm()
          (pwconv1): Linear(in_features=192, out_features=768, bias=True)
          (act): GELU()
          (pwconv2): Linear(in_features=768, out_features=192, bias=True)
          (drop_path): Identity()
        )
        (1): Block(
          (dwconv): Conv2d(192, 192, kernel_size=(7, 7), stride=(1, 1), padding=(3, 3), groups=192)
          (norm): LayerNorm()
          (pwconv1): Linear(in_features=192, out_features=768, bias=True)
          (act): GELU()
          (pwconv2): Linear(in_features=768, out_features=192, bias=True)
          (drop_path): DropPath(drop_prob=0.011)
        )
        (2): Block(
          (dwconv): Conv2d(192, 192, kernel_size=(7, 7), stride=(1, 1), padding=(3, 3), groups=192)
          (norm): LayerNorm()
          (pwconv1): Linear(in_features=192, out_features=768, bias=True)
          (act): GELU()
          (pwconv2): Linear(in_features=768, out_features=192, bias=True)
          (drop_path): DropPath(drop_prob=0.023)
        )
      )
      (1): Sequential(
        (0): Block(
          (dwconv): Conv2d(384, 384, kernel_size=(7, 7), stride=(1, 1), padding=(3, 3), groups=384)
          (norm): LayerNorm()
          (pwconv1): Linear(in_features=384, out_features=1536, bias=True)
          (act): GELU()
          (pwconv2): Linear(in_features=1536, out_features=384, bias=True)
          (drop_path): DropPath(drop_prob=0.034)
        )
        (1): Block(
          (dwconv): Conv2d(384, 384, kernel_size=(7, 7), stride=(1, 1), padding=(3, 3), groups=384)
          (norm): LayerNorm()
          (pwconv1): Linear(in_features=384, out_features=1536, bias=True)
          (act): GELU()
          (pwconv2): Linear(in_features=1536, out_features=384, bias=True)
          (drop_path): DropPath(drop_prob=0.046)
        )
        (2): Block(
          (dwconv): Conv2d(384, 384, kernel_size=(7, 7), stride=(1, 1), padding=(3, 3), groups=384)
          (norm): LayerNorm()
          (pwconv1): Linear(in_features=384, out_features=1536, bias=True)
          (act): GELU()
          (pwconv2): Linear(in_features=1536, out_features=384, bias=True)
          (drop_path): DropPath(drop_prob=0.057)
        )
      )
      (2): Sequential(
        (0): Block(
          (dwconv): Conv2d(768, 768, kernel_size=(7, 7), stride=(1, 1), padding=(3, 3), groups=768)
          (norm): LayerNorm()
          (pwconv1): Linear(in_features=768, out_features=3072, bias=True)
          (act): GELU()
          (pwconv2): Linear(in_features=3072, out_features=768, bias=True)
          (drop_path): DropPath(drop_prob=0.069)
        )
        (1): Block(
          (dwconv): Conv2d(768, 768, kernel_size=(7, 7), stride=(1, 1), padding=(3, 3), groups=768)
          (norm): LayerNorm()
          (pwconv1): Linear(in_features=768, out_features=3072, bias=True)
          (act): GELU()
          (pwconv2): Linear(in_features=3072, out_features=768, bias=True)
          (drop_path): DropPath(drop_prob=0.080)
        )
        (2): Block(
          (dwconv): Conv2d(768, 768, kernel_size=(7, 7), stride=(1, 1), padding=(3, 3), groups=768)
          (norm): LayerNorm()
          (pwconv1): Linear(in_features=768, out_features=3072, bias=True)
          (act): GELU()
          (pwconv2): Linear(in_features=3072, out_features=768, bias=True)
          (drop_path): DropPath(drop_prob=0.091)
        )
        (3): Block(
          (dwconv): Conv2d(768, 768, kernel_size=(7, 7), stride=(1, 1), padding=(3, 3), groups=768)
          (norm): LayerNorm()
          (pwconv1): Linear(in_features=768, out_features=3072, bias=True)
          (act): GELU()
          (pwconv2): Linear(in_features=3072, out_features=768, bias=True)
          (drop_path): DropPath(drop_prob=0.103)
        )
        (4): Block(
          (dwconv): Conv2d(768, 768, kernel_size=(7, 7), stride=(1, 1), padding=(3, 3), groups=768)
          (norm): LayerNorm()
          (pwconv1): Linear(in_features=768, out_features=3072, bias=True)
          (act): GELU()
          (pwconv2): Linear(in_features=3072, out_features=768, bias=True)
          (drop_path): DropPath(drop_prob=0.114)
        )
        (5): Block(
          (dwconv): Conv2d(768, 768, kernel_size=(7, 7), stride=(1, 1), padding=(3, 3), groups=768)
          (norm): LayerNorm()
          (pwconv1): Linear(in_features=768, out_features=3072, bias=True)
          (act): GELU()
          (pwconv2): Linear(in_features=3072, out_features=768, bias=True)
          (drop_path): DropPath(drop_prob=0.126)
        )
        (6): Block(
          (dwconv): Conv2d(768, 768, kernel_size=(7, 7), stride=(1, 1), padding=(3, 3), groups=768)
          (norm): LayerNorm()
          (pwconv1): Linear(in_features=768, out_features=3072, bias=True)
          (act): GELU()
          (pwconv2): Linear(in_features=3072, out_features=768, bias=True)
          (drop_path): DropPath(drop_prob=0.137)
        )
        (7): Block(
          (dwconv): Conv2d(768, 768, kernel_size=(7, 7), stride=(1, 1), padding=(3, 3), groups=768)
          (norm): LayerNorm()
          (pwconv1): Linear(in_features=768, out_features=3072, bias=True)
          (act): GELU()
          (pwconv2): Linear(in_features=3072, out_features=768, bias=True)
          (drop_path): DropPath(drop_prob=0.149)
        )
        (8): Block(
          (dwconv): Conv2d(768, 768, kernel_size=(7, 7), stride=(1, 1), padding=(3, 3), groups=768)
          (norm): LayerNorm()
          (pwconv1): Linear(in_features=768, out_features=3072, bias=True)
          (act): GELU()
          (pwconv2): Linear(in_features=3072, out_features=768, bias=True)
          (drop_path): DropPath(drop_prob=0.160)
        )
        (9): Block(
          (dwconv): Conv2d(768, 768, kernel_size=(7, 7), stride=(1, 1), padding=(3, 3), groups=768)
          (norm): LayerNorm()
          (pwconv1): Linear(in_features=768, out_features=3072, bias=True)
          (act): GELU()
          (pwconv2): Linear(in_features=3072, out_features=768, bias=True)
          (drop_path): DropPath(drop_prob=0.171)
        )
        (10): Block(
          (dwconv): Conv2d(768, 768, kernel_size=(7, 7), stride=(1, 1), padding=(3, 3), groups=768)
          (norm): LayerNorm()
          (pwconv1): Linear(in_features=768, out_features=3072, bias=True)
          (act): GELU()
          (pwconv2): Linear(in_features=3072, out_features=768, bias=True)
          (drop_path): DropPath(drop_prob=0.183)
        )
        (11): Block(
          (dwconv): Conv2d(768, 768, kernel_size=(7, 7), stride=(1, 1), padding=(3, 3), groups=768)
          (norm): LayerNorm()
          (pwconv1): Linear(in_features=768, out_features=3072, bias=True)
          (act): GELU()
          (pwconv2): Linear(in_features=3072, out_features=768, bias=True)
          (drop_path): DropPath(drop_prob=0.194)
        )
        (12): Block(
          (dwconv): Conv2d(768, 768, kernel_size=(7, 7), stride=(1, 1), padding=(3, 3), groups=768)
          (norm): LayerNorm()
          (pwconv1): Linear(in_features=768, out_features=3072, bias=True)
          (act): GELU()
          (pwconv2): Linear(in_features=3072, out_features=768, bias=True)
          (drop_path): DropPath(drop_prob=0.206)
        )
        (13): Block(
          (dwconv): Conv2d(768, 768, kernel_size=(7, 7), stride=(1, 1), padding=(3, 3), groups=768)
          (norm): LayerNorm()
          (pwconv1): Linear(in_features=768, out_features=3072, bias=True)
          (act): GELU()
          (pwconv2): Linear(in_features=3072, out_features=768, bias=True)
          (drop_path): DropPath(drop_prob=0.217)
        )
        (14): Block(
          (dwconv): Conv2d(768, 768, kernel_size=(7, 7), stride=(1, 1), padding=(3, 3), groups=768)
          (norm): LayerNorm()
          (pwconv1): Linear(in_features=768, out_features=3072, bias=True)
          (act): GELU()
          (pwconv2): Linear(in_features=3072, out_features=768, bias=True)
          (drop_path): DropPath(drop_prob=0.229)
        )
        (15): Block(
          (dwconv): Conv2d(768, 768, kernel_size=(7, 7), stride=(1, 1), padding=(3, 3), groups=768)
          (norm): LayerNorm()
          (pwconv1): Linear(in_features=768, out_features=3072, bias=True)
          (act): GELU()
          (pwconv2): Linear(in_features=3072, out_features=768, bias=True)
          (drop_path): DropPath(drop_prob=0.240)
        )
        (16): Block(
          (dwconv): Conv2d(768, 768, kernel_size=(7, 7), stride=(1, 1), padding=(3, 3), groups=768)
          (norm): LayerNorm()
          (pwconv1): Linear(in_features=768, out_features=3072, bias=True)
          (act): GELU()
          (pwconv2): Linear(in_features=3072, out_features=768, bias=True)
          (drop_path): DropPath(drop_prob=0.251)
        )
        (17): Block(
          (dwconv): Conv2d(768, 768, kernel_size=(7, 7), stride=(1, 1), padding=(3, 3), groups=768)
          (norm): LayerNorm()
          (pwconv1): Linear(in_features=768, out_features=3072, bias=True)
          (act): GELU()
          (pwconv2): Linear(in_features=3072, out_features=768, bias=True)
          (drop_path): DropPath(drop_prob=0.263)
        )
        (18): Block(
          (dwconv): Conv2d(768, 768, kernel_size=(7, 7), stride=(1, 1), padding=(3, 3), groups=768)
          (norm): LayerNorm()
          (pwconv1): Linear(in_features=768, out_features=3072, bias=True)
          (act): GELU()
          (pwconv2): Linear(in_features=3072, out_features=768, bias=True)
          (drop_path): DropPath(drop_prob=0.274)
        )
        (19): Block(
          (dwconv): Conv2d(768, 768, kernel_size=(7, 7), stride=(1, 1), padding=(3, 3), groups=768)
          (norm): LayerNorm()
          (pwconv1): Linear(in_features=768, out_features=3072, bias=True)
          (act): GELU()
          (pwconv2): Linear(in_features=3072, out_features=768, bias=True)
          (drop_path): DropPath(drop_prob=0.286)
        )
        (20): Block(
          (dwconv): Conv2d(768, 768, kernel_size=(7, 7), stride=(1, 1), padding=(3, 3), groups=768)
          (norm): LayerNorm()
          (pwconv1): Linear(in_features=768, out_features=3072, bias=True)
          (act): GELU()
          (pwconv2): Linear(in_features=3072, out_features=768, bias=True)
          (drop_path): DropPath(drop_prob=0.297)
        )
        (21): Block(
          (dwconv): Conv2d(768, 768, kernel_size=(7, 7), stride=(1, 1), padding=(3, 3), groups=768)
          (norm): LayerNorm()
          (pwconv1): Linear(in_features=768, out_features=3072, bias=True)
          (act): GELU()
          (pwconv2): Linear(in_features=3072, out_features=768, bias=True)
          (drop_path): DropPath(drop_prob=0.309)
        )
        (22): Block(
          (dwconv): Conv2d(768, 768, kernel_size=(7, 7), stride=(1, 1), padding=(3, 3), groups=768)
          (norm): LayerNorm()
          (pwconv1): Linear(in_features=768, out_features=3072, bias=True)
          (act): GELU()
          (pwconv2): Linear(in_features=3072, out_features=768, bias=True)
          (drop_path): DropPath(drop_prob=0.320)
        )
        (23): Block(
          (dwconv): Conv2d(768, 768, kernel_size=(7, 7), stride=(1, 1), padding=(3, 3), groups=768)
          (norm): LayerNorm()
          (pwconv1): Linear(in_features=768, out_features=3072, bias=True)
          (act): GELU()
          (pwconv2): Linear(in_features=3072, out_features=768, bias=True)
          (drop_path): DropPath(drop_prob=0.331)
        )
        (24): Block(
          (dwconv): Conv2d(768, 768, kernel_size=(7, 7), stride=(1, 1), padding=(3, 3), groups=768)
          (norm): LayerNorm()
          (pwconv1): Linear(in_features=768, out_features=3072, bias=True)
          (act): GELU()
          (pwconv2): Linear(in_features=3072, out_features=768, bias=True)
          (drop_path): DropPath(drop_prob=0.343)
        )
        (25): Block(
          (dwconv): Conv2d(768, 768, kernel_size=(7, 7), stride=(1, 1), padding=(3, 3), groups=768)
          (norm): LayerNorm()
          (pwconv1): Linear(in_features=768, out_features=3072, bias=True)
          (act): GELU()
          (pwconv2): Linear(in_features=3072, out_features=768, bias=True)
          (drop_path): DropPath(drop_prob=0.354)
        )
        (26): Block(
          (dwconv): Conv2d(768, 768, kernel_size=(7, 7), stride=(1, 1), padding=(3, 3), groups=768)
          (norm): LayerNorm()
          (pwconv1): Linear(in_features=768, out_features=3072, bias=True)
          (act): GELU()
          (pwconv2): Linear(in_features=3072, out_features=768, bias=True)
          (drop_path): DropPath(drop_prob=0.366)
        )
      )
      (3): Sequential(
        (0): Block(
          (dwconv): Conv2d(1536, 1536, kernel_size=(7, 7), stride=(1, 1), padding=(3, 3), groups=1536)
          (norm): LayerNorm()
          (pwconv1): Linear(in_features=1536, out_features=6144, bias=True)
          (act): GELU()
          (pwconv2): Linear(in_features=6144, out_features=1536, bias=True)
          (drop_path): DropPath(drop_prob=0.377)
        )
        (1): Block(
          (dwconv): Conv2d(1536, 1536, kernel_size=(7, 7), stride=(1, 1), padding=(3, 3), groups=1536)
          (norm): LayerNorm()
          (pwconv1): Linear(in_features=1536, out_features=6144, bias=True)
          (act): GELU()
          (pwconv2): Linear(in_features=6144, out_features=1536, bias=True)
          (drop_path): DropPath(drop_prob=0.389)
        )
        (2): Block(
          (dwconv): Conv2d(1536, 1536, kernel_size=(7, 7), stride=(1, 1), padding=(3, 3), groups=1536)
          (norm): LayerNorm()
          (pwconv1): Linear(in_features=1536, out_features=6144, bias=True)
          (act): GELU()
          (pwconv2): Linear(in_features=6144, out_features=1536, bias=True)
          (drop_path): DropPath(drop_prob=0.400)
        )
      )
    )
    (norm0): LayerNorm()
    (norm1): LayerNorm()
    (norm2): LayerNorm()
    (norm3): LayerNorm()
  )
  (decode_head): ECFD(
    input_transform=multiple_select, ignore_index=255, align_corners=False
    (loss_decode): CrossEntropyLoss()
    (conv_seg): Conv2d(192, 59, kernel_size=(1, 1), stride=(1, 1))
    (dropout): Dropout2d(p=0.1, inplace=False)
    (c1_conv1x1): Conv2d(192, 192, kernel_size=(1, 1), stride=(1, 1))
    (c2_conv1x1): Conv2d(384, 192, kernel_size=(1, 1), stride=(1, 1))
    (c3_conv1x1): Conv2d(768, 192, kernel_size=(1, 1), stride=(1, 1))
    (c4_conv1x1): Conv2d(1536, 192, kernel_size=(1, 1), stride=(1, 1))
    (RCE): ReinforceContextEmbedding(
      (layer2_embedding): Conv2d(384, 192, kernel_size=(1, 1), stride=(1, 1))
      (layer3_embedding): Conv2d(768, 192, kernel_size=(1, 1), stride=(1, 1))
      (layer4_embedding): ConvTranspose2d(1536, 192, kernel_size=(1, 1), stride=(1, 1))
      (fuse_layer): Conv2d(576, 192, kernel_size=(1, 1), stride=(1, 1))
      (norm): Identity()
    )
    (pos_drop): Dropout(p=0.0, inplace=False)
    (blocks): ModuleList(
      (0): CrossLayerFusionBlock(
        (CICM): ContextInformationCorrectionModule(
          (query_norm): LayerNorm((192,), eps=1e-06, elementwise_affine=True)
          (feat_norm): LayerNorm((192,), eps=1e-06, elementwise_affine=True)
          (attn): MSDeformAttn(
            (sampling_offsets): Linear(in_features=192, out_features=144, bias=True)
            (attention_weights): Linear(in_features=192, out_features=72, bias=True)
            (value_proj): Linear(in_features=192, out_features=192, bias=True)
            (output_proj): Linear(in_features=192, out_features=192, bias=True)
          )
        )
        (SICM): SpatialInformationCorrectionModule(
          (query_norm): LayerNorm((192,), eps=1e-06, elementwise_affine=True)
          (feat_norm): LayerNorm((192,), eps=1e-06, elementwise_affine=True)
          (attn): MSDeformAttn(
            (sampling_offsets): Linear(in_features=192, out_features=48, bias=True)
            (attention_weights): Linear(in_features=192, out_features=24, bias=True)
            (value_proj): Linear(in_features=192, out_features=192, bias=True)
            (output_proj): Linear(in_features=192, out_features=192, bias=True)
          )
          (Mlp): Mlp(
            (fc1): Linear(in_features=192, out_features=96, bias=True)
            (dwconv): DWConv(
              (dwconv): Conv2d(96, 96, kernel_size=(3, 3), stride=(1, 1), padding=(1, 1), groups=96)
            )
            (act): GELU()
            (fc2): Linear(in_features=96, out_features=192, bias=True)
            (drop): Dropout(p=0.0, inplace=False)
          )
          (mlp_norm): LayerNorm((192,), eps=1e-06, elementwise_affine=True)
          (drop_path): Identity()
        )
      )
      (1): CrossLayerFusionBlock(
        (CICM): ContextInformationCorrectionModule(
          (query_norm): LayerNorm((192,), eps=1e-06, elementwise_affine=True)
          (feat_norm): LayerNorm((192,), eps=1e-06, elementwise_affine=True)
          (attn): MSDeformAttn(
            (sampling_offsets): Linear(in_features=192, out_features=144, bias=True)
            (attention_weights): Linear(in_features=192, out_features=72, bias=True)
            (value_proj): Linear(in_features=192, out_features=192, bias=True)
            (output_proj): Linear(in_features=192, out_features=192, bias=True)
          )
        )
        (SICM): SpatialInformationCorrectionModule(
          (query_norm): LayerNorm((192,), eps=1e-06, elementwise_affine=True)
          (feat_norm): LayerNorm((192,), eps=1e-06, elementwise_affine=True)
          (attn): MSDeformAttn(
            (sampling_offsets): Linear(in_features=192, out_features=48, bias=True)
            (attention_weights): Linear(in_features=192, out_features=24, bias=True)
            (value_proj): Linear(in_features=192, out_features=192, bias=True)
            (output_proj): Linear(in_features=192, out_features=192, bias=True)
          )
          (Mlp): Mlp(
            (fc1): Linear(in_features=192, out_features=96, bias=True)
            (dwconv): DWConv(
              (dwconv): Conv2d(96, 96, kernel_size=(3, 3), stride=(1, 1), padding=(1, 1), groups=96)
            )
            (act): GELU()
            (fc2): Linear(in_features=96, out_features=192, bias=True)
            (drop): Dropout(p=0.0, inplace=False)
          )
          (mlp_norm): LayerNorm((192,), eps=1e-06, elementwise_affine=True)
          (drop_path): Identity()
        )
      )
      (2): CrossLayerFusionBlock(
        (CICM): ContextInformationCorrectionModule(
          (query_norm): LayerNorm((192,), eps=1e-06, elementwise_affine=True)
          (feat_norm): LayerNorm((192,), eps=1e-06, elementwise_affine=True)
          (attn): MSDeformAttn(
            (sampling_offsets): Linear(in_features=192, out_features=144, bias=True)
            (attention_weights): Linear(in_features=192, out_features=72, bias=True)
            (value_proj): Linear(in_features=192, out_features=192, bias=True)
            (output_proj): Linear(in_features=192, out_features=192, bias=True)
          )
        )
        (SICM): SpatialInformationCorrectionModule(
          (query_norm): LayerNorm((192,), eps=1e-06, elementwise_affine=True)
          (feat_norm): LayerNorm((192,), eps=1e-06, elementwise_affine=True)
          (attn): MSDeformAttn(
            (sampling_offsets): Linear(in_features=192, out_features=48, bias=True)
            (attention_weights): Linear(in_features=192, out_features=24, bias=True)
            (value_proj): Linear(in_features=192, out_features=192, bias=True)
            (output_proj): Linear(in_features=192, out_features=192, bias=True)
          )
          (Mlp): Mlp(
            (fc1): Linear(in_features=192, out_features=96, bias=True)
            (dwconv): DWConv(
              (dwconv): Conv2d(96, 96, kernel_size=(3, 3), stride=(1, 1), padding=(1, 1), groups=96)
            )
            (act): GELU()
            (fc2): Linear(in_features=96, out_features=192, bias=True)
            (drop): Dropout(p=0.0, inplace=False)
          )
          (mlp_norm): LayerNorm((192,), eps=1e-06, elementwise_affine=True)
          (drop_path): Identity()
        )
      )
    )
    (norm2): SyncBatchNorm(192, eps=1e-05, momentum=0.1, affine=True, track_running_stats=True)
    (norm3): SyncBatchNorm(192, eps=1e-05, momentum=0.1, affine=True, track_running_stats=True)
    (norm4): SyncBatchNorm(192, eps=1e-05, momentum=0.1, affine=True, track_running_stats=True)
    (c2_deconv1x1): Conv2d(192, 192, kernel_size=(1, 1), stride=(1, 1))
    (c3_deconv1x1): Conv2d(192, 192, kernel_size=(1, 1), stride=(1, 1))
    (c4_deconv1x1): Conv2d(192, 192, kernel_size=(1, 1), stride=(1, 1))
    (fpn): FCFPNHead(
      (fpn_lateral): ModuleList(
        (0): Sequential(
          (0): Conv2d(192, 192, kernel_size=(1, 1), stride=(1, 1), bias=False)
          (1): SyncBatchNorm(192, eps=1e-05, momentum=0.1, affine=True, track_running_stats=True)
          (2): ReLU(inplace=True)
        )
        (1): Sequential(
          (0): Conv2d(192, 192, kernel_size=(1, 1), stride=(1, 1), bias=False)
          (1): SyncBatchNorm(192, eps=1e-05, momentum=0.1, affine=True, track_running_stats=True)
          (2): ReLU(inplace=True)
        )
        (2): Sequential(
          (0): Conv2d(192, 192, kernel_size=(1, 1), stride=(1, 1), bias=False)
          (1): SyncBatchNorm(192, eps=1e-05, momentum=0.1, affine=True, track_running_stats=True)
          (2): ReLU(inplace=True)
        )
      )
      (fpn_out): ModuleList(
        (0): Sequential(
          (0): Conv2d(192, 192, kernel_size=(3, 3), stride=(1, 1), padding=(1, 1), bias=False)
          (1): SyncBatchNorm(192, eps=1e-05, momentum=0.1, affine=True, track_running_stats=True)
          (2): ReLU(inplace=True)
        )
        (1): Sequential(
          (0): Conv2d(192, 192, kernel_size=(3, 3), stride=(1, 1), padding=(1, 1), bias=False)
          (1): SyncBatchNorm(192, eps=1e-05, momentum=0.1, affine=True, track_running_stats=True)
          (2): ReLU(inplace=True)
        )
        (2): Sequential(
          (0): Conv2d(192, 192, kernel_size=(3, 3), stride=(1, 1), padding=(1, 1), bias=False)
          (1): SyncBatchNorm(192, eps=1e-05, momentum=0.1, affine=True, track_running_stats=True)
          (2): ReLU(inplace=True)
        )
      )
      (c4conv): Sequential(
        (0): Conv2d(192, 192, kernel_size=(3, 3), stride=(1, 1), padding=(1, 1), bias=False)
        (1): SyncBatchNorm(192, eps=1e-05, momentum=0.1, affine=True, track_running_stats=True)
        (2): ReLU()
      )
      (conv5): Sequential(
        (0): Conv2d(768, 192, kernel_size=(3, 3), stride=(1, 1), padding=(1, 1), bias=False)
        (1): SyncBatchNorm(192, eps=1e-05, momentum=0.1, affine=True, track_running_stats=True)
        (2): ReLU()
      )
    )
    (clgd): CLGD(
      (conv_low): Sequential(
        (0): Conv2d(192, 32, kernel_size=(3, 3), stride=(1, 1), padding=(1, 1), bias=False)
        (1): SyncBatchNorm(32, eps=1e-05, momentum=0.1, affine=True, track_running_stats=True)
        (2): ReLU()
      )
      (conv_cat): Sequential(
        (0): Conv2d(224, 192, kernel_size=(3, 3), stride=(1, 1), padding=(1, 1), bias=False)
        (1): SyncBatchNorm(192, eps=1e-05, momentum=0.1, affine=True, track_running_stats=True)
        (2): ReLU()
      )
      (conv_att): Sequential(
        (0): Conv2d(224, 1, kernel_size=(1, 1), stride=(1, 1))
        (1): Sigmoid()
      )
      (conv_out): Sequential(
        (0): Conv2d(192, 192, kernel_size=(3, 3), stride=(1, 1), padding=(1, 1), bias=False)
        (1): SyncBatchNorm(192, eps=1e-05, momentum=0.1, affine=True, track_running_stats=True)
        (2): ReLU()
      )
    )
    (up): ConvTranspose2d(192, 192, kernel_size=(2, 2), stride=(2, 2))
  )
  (auxiliary_head): FCNHead(
    input_transform=None, ignore_index=255, align_corners=False
    (loss_decode): CrossEntropyLoss()
    (conv_seg): Conv2d(256, 59, kernel_size=(1, 1), stride=(1, 1))
    (dropout): Dropout2d(p=0.1, inplace=False)
    (convs): Sequential(
      (0): ConvModule(
        (conv): Conv2d(768, 256, kernel_size=(3, 3), stride=(1, 1), padding=(1, 1), bias=False)
        (bn): SyncBatchNorm(256, eps=1e-05, momentum=0.1, affine=True, track_running_stats=True)
        (activate): ReLU(inplace=True)
      )
    )
  )
)
2023-08-30 14:43:13,827 - mmseg - INFO - Loaded 4996 images
2023-08-30 14:43:18,047 - mmseg - INFO - Loaded 1000 images
2023-08-30 14:43:18,047 - mmseg - INFO - Start running, host: zhangsongy@b08r2n00, work_dir: /public/home/zhangsongy/Swin-Transformer-Semantic-Segmentation-main/addition_works/pascal_context/right/ecfd_tiny_convnext_large_480x480_80k_pascal_context
…
